data.pth (torch, 14807 bytes, 6 tensors)

l1.weight f4 [8, 224]
00000000: 6a6b 8bbe 27ac 18bf 1866 8b3f c0bf 9f3f
00000010: f940 3b3f 6c9e f0be f587 02bf 9e5d 53be
00000020: 521b 463f ba3b 11bd 8fcf fd3e e446 033f
00000030: 2930 60be c64f 9a3c 939b 1f3f 4958 463f
00000040: bb6e 5abd bed5 c0be 832d e7be 8e8e 473f
00000050: 102d 183f f0e7 703b d4f2 323f 40cf 5bbd
00000060: 7552 8abe 49e0 223f 36bb f13e f4e4 a5be
00000070: 2dac cb3e 9823 083f 7a26 febe 3c20 71be
00000080: 5552 a33d 00e7 613f 448d cb3e 39cf 50be
00000090: 6346 323d a74b 02bf b117 dd3e 63af 6e3f
000000a0: 7ae4 ab3e b988 863e 3ad4 f43d efcb 96be
000000b0: 3f7a 043f a9af 093f d7e0 343f 92a7 42be
000000c0: f007 ddbe 5dbe 323f 2b5c 17bf 1559 a03e
000000d0: eb10 6c3d 3c2d 133f 7357 51be c7f8 19bf
000000e0: 6655 73bf ac94 7ebd 758f 71be 3b76 9ebb
000000f0: fbaf 7cbe cce7 68be cc1d 403f a92e 053f
00000100: 1c87 493f 588c a2be 6684 123f 11de 5bbc
00000110: 2640 503f 093e 34be 706d 863f 3ff8 3d3f
00000120: 4308 f6be 7227 f3be 7e54 083f 4b94 163f
00000130: 5989 323f fed0 fe3e 11b6 28be e4b3 b7be
00000140: 72e5 17bf 5f87 18bf 64ee 533f 8cdf 41be
00000150: 0714 243f 52e9 4d3f 6e16 813d d7ac c4be
00000160: b87d 243e 31d3 c5be e0bf 843b b543 10bf
00000170: 3ffe babe 62cc e73e c5d2 9d3e b215 433e
00000180: da4e 163e 5868 a5be 3257 8d3f 0f19 7b3f
00000190: d258 583e ed58 2f3d 752d fa3e 2dd1 173f
000001a0: 0540 813e 0fbc 803c d84f 11bd 5c28 02bf
000001b0: be90 0c3f 53a5 b7bd deb5 493f e929 483f
000001c0: a423 773f e4e9 32be d9fa 1e3f 90c0 a4be
000001d0: 760c fe3e e3e3 48be c8db 26be bb2c 073f
000001e0: faeb 293f 9b0a 3ebe 53d5 833f 4b94 16bf
000001f0: 8606 d1bc 8efa 113f aa8a 303f cc96 0f3f
00000200: f283 1c3f 241f b0bc a422 32bc b10c 393f
00000210: 94fa 1f3f adfd b03e 3294 673f 4b20 a8bd
00000220: 8865 373f 147d 403e e129 563f dbbd 213f
00000230: 6a21 50bd e226 713f 5f22 c5be 7979 00bf
00000240: ef89 bc3e baba 3e3f f55a 483f ac7b 4c3f
00000250: b18d 533f d21b 563f 139f 713d c2a2 903c
00000260: 1896 33bc e744 9bbe a751 4b3f d902 9ebc
00000270: de06 ba3e 8602 173f 01bb bcbd ed82 ba3e
00000280: cf89 c23e f810 013f b26e bb3e df95 6b3e
00000290: 53b3 f53e c314 f03e 5dff 4d3f 65df 233f
000002a0: 32db 403f e905 e63e fc83 9b3f aa26 9abe
000002b0: b65a e03e 5906 c43e 3e18 883c 461d 663e
000002c0: 1253 683f f5b2 ba3e 4316 713f b1e2 06bf
000002d0: a33d 02bf 6d34 d43e 1757 42bc 608b 163f
000002e0: 3d09 273f 2742 99bc 73bb 2bbe 8fbd 743f
000002f0: 3b06 27bf 0732 94be c702 0abe 30a3 01bf
00000300: e12d 693f 3bdb 6b3d 29ad 97be 52c2 ac3e
00000310: 23eb 0cbd 1606 cdbd a2f7 61be a659 49be
00000320: 0427 303f 2659 4fbe 8b25 5a3f c56b e7bd
00000330: 09ab c1bd e769 ecbd 785a 6abc 1caa 283e
00000340: 8535 b93e bffb 623f 8871 ebbe 5826 823f
00000350: 3c91 2d3c 9d71 57bf eaee 453e 6c47 1d3f
00000360: 3396 d6be a51c 643e ae7b 1b3f e3e7 8bbe
00000370: 4368 a5be fb1a 8e3f 05d2 803e 1f6f 113f
00000380: 27de 623f 552b 49bf 0e06 eabe 0daa a83e
00000390: c70a 133e 6115 0c3f 8592 6c3e a4b6 313f
000003a0: 97ac 2cbf ad1b c8be 3ee4 02bf e7cc f7be
000003b0: eac6 c13e 21dc 813d 4970 583f c2ea 733d
000003c0: a434 e83e 5a34 533f 2870 66be e1a5 843e
000003d0: fa4f c4be b49e 80bf 6353 23be 9122 3a3f
000003e0: 64bd 2f3f 7bd7 db3d 0c06 ecbd d8bc c73e
000003f0: be0a 06bf 6158 4a3f bdb6 d8be f32e 8f3e
-0.27230388 -0.59637684 1.0890532 1.2480392 0.73146015 -0.46995866 -0.50988704 -0.20641181
0.7738544 -0.03545735 0.49572417 0.51280046 -0.21893372 0.018836867 0.6234676 0.7747846
-0.053328257 -0.37663072 -0.4515191 0.77951896 0.5944376 0.003675934 0.69901776 -0.053664446
-0.27016035 0.6362348 0.47213143 -0.3240124 0.39779797 0.5317931 -0.4963873 -0.23547453
0.07974688 0.88243103 0.39756215 -0.20391549 0.043524157 -0.50896686 0.43182138 0.9323637
0.3357275 0.26276186 0.119545415 -0.29452464 0.5174903 0.5378366 0.7065558 -0.19009236
-0.43170118 0.6982172 -0.5912501 0.31317964 0.05763332 0.574909 -0.20443515 -0.6014523
-0.9505218 -0.062153503 -0.23589881 -0.0048358715 -0.24676506 -0.22744673 0.75045466 0.5202432
0.78721786 -0.317477 0.57233274 -0.013419644 0.8134788 -0.1760179 1.0502148 0.7420692
-0.48053178 -0.47491032 0.53253925 0.5882003 0.69740826 0.49768823 -0.16475703 -0.35879433
-0.5933448 -0.5958156 0.8278563 -0.18932933 0.6409306 0.80434144 0.06303106 -0.38413116
0.16063583 -0.3863769 0.0040511936 -0.5635331 -0.365221 0.4527312 0.30824867 0.19051245
0.14678517 -0.3230617 1.1042235 0.9808511 0.21127632 0.042809416 0.48862806 0.5930355
0.25244156 0.015714673 -0.035476536 -0.50842834 0.5490836 -0.0896708 0.7879313 0.7818895
0.9653876 -0.17472035 0.62101513 -0.32178164 0.49618882 -0.19618182 -0.16294777 0.5280263
0.66375697 -0.18558733 1.0299476 -0.5882003 -0.025515806 0.5702294 0.68961585 0.5608947
0.6113883 -0.021499224 -0.010872517 0.7228499 0.62491727 0.3456854 0.90460503 -0.082092844
0.716393 0.18797714 0.8365765 0.6318032 -0.050813116 0.94199955 -0.38502786 -0.5018535
0.36823985 0.7450367 0.7826379 0.7987621 0.8263808 0.836362 0.058989596 0.017655734
-0.010961078 -0.30326006 0.79421467 -0.019288467 0.36333364 0.58988225 -0.09215356 0.36428013
0.37995765 0.5041652 0.3660789 0.2300639 0.47988376 0.4689084 0.8046778 0.6401275
0.75334466 0.44926384 1.2149653 -0.30107623 0.43819207 0.38286093 0.016613122 0.22472104
0.90751755 0.36464658 0.94174594 -0.52689654 -0.508753 0.41446248 -0.011861584 0.5880642
0.6524847 -0.018708302 -0.16770725 0.95601743 -0.6524388 -0.28944418 -0.13477622 -0.5063963
0.9108563 0.05758212 -0.29624298 0.33742005 -0.03440393 -0.100109264 -0.2206712 -0.19663104
0.68809533 -0.20248851 0.85213536 -0.11299852 -0.094564505 -0.11543637 -0.014303796 0.16471142
0.36173645 0.88665384 -0.45985055 1.0167952 0.010593709 -0.84157735 0.1932942 0.61437106
-0.41911468 0.22276552 0.60735595 -0.27325353 -0.32306108 1.1101984 0.25160232 0.5681018
0.8862023 -0.78581744 -0.45707744 0.32942238 0.1435958 0.5472012 0.23102768 0.6941931
-0.6745085 -0.39083615 -0.5112952 -0.48398516 0.37847072 0.063408144 0.84546334 0.059550054
0.45352662 0.8250176 -0.22503722 0.25907806 -0.38342267 -1.0048432 -0.15949778 0.72708994
0.6864836 0.10734459 -0.11524591 0.39011264 -0.5236014 0.79041106 -0.42326918 0.27965507

l1.bias f4 [8]
00000000: 2c04 b03e 83df cb3f a8d6 0a3f 3ab1 9a3f
00000010: d068 133f ae72 583f fafb 6d3f 7fc2 ab3f
0.34378183 1.5927585 0.5423379 1.2085335 0.57581806 0.8454999 0.9296261 1.341873

l2.weight f4 [8, 8]
00000000: 99e4 e03f d203 21be 3012 0b40 2142 6fbf
00000010: bf20 58bf a9e2 943f 66b6 a03f d4ab aa3f
00000020: ca8d 1e3e f3e5 fc3f e258 cc3f 745b 4e3f
00000030: 6b06 883f 556c aa3f 545c d9bf c2c1 62bf
00000040: ff2f 413e f92c 9bbf ac03 9ebf 192c 0440
00000050: efa1 d93f 059a a33f 800b d63f be41 ea3f
00000060: f54e b33f d23e 0e40 11b6 7abe 1edf a2bf
00000070: db81 1840 7097 f0bf 01b1 083d 44c1 7c3f
00000080: 7fb9 193c 8488 a53f 86eb b5bf 797b aabf
00000090: dc5f 2cbf 5306 913f f7a1 723f 63ac a83f
000000a0: 391f 303e 50eb b3be 2f8b 00be e7b9 fd3d
000000b0: eba7 36be 3a74 86be 579f c9bc cd34 a4be
000000c0: d45e bdbf a2c8 dc3f 9157 8f3f b9d5 453f
000000d0: eb1e 60bf a8cf b7be 0ad5 543f f87e e5bd
000000e0: 19c3 aebf 8299 613f 14b1 11bf e87a e93f
000000f0: bb87 71bf aa82 fcbe 5272 da3e 5890 9c3f
1.7569762 -0.15724114 2.172985 -0.9346028 -0.84424967 1.1631671 1.2555664 1.3333688
0.15483776 1.9757675 1.5964625 0.80608296 1.0626959 1.331431 -1.6981301 -0.885769
0.18865965 -1.21231 -1.234487 2.0651915 1.7002543 1.2781378 1.672226 1.8301313
1.4008471 2.2225842 -0.24483515 -1.272434 2.3829257 -1.8796215 0.03337193 0.987324
0.009382605 1.2932286 -1.4212501 -1.3318931 -0.6733377 1.1330055 0.9477839 1.3177608
0.1719941 -0.35140467 -0.12553094 0.12388974 -0.17837493 -0.2626055 -0.024612112 -0.32071534
-1.4794564 1.7248728 1.1198598 0.7727924 -0.8754718 -0.35900617 0.8313757 -0.11205858
-1.3653289 0.8812486 -0.56910825 1.8240633 -0.94347733 -0.4931844 0.42665344 1.223155

l2.bias f4 [8]
00000000: 1579 a6be a2dd 283f d620 f83e e37d 953f
00000010: 6d8e 943f 93e8 56bd 601d 6e3f 56ed a03f
-0.32514253 0.65963185 0.48462552 1.1679043 1.1605965 -0.052467894 0.9301357 1.2572429

l3.weight f4 [44, 8]
00000000: 9876 acbf d07d ca3e 3149 29c0 f908 b5bc
00000010: cf7e 50bf beba aabc 1e93 d43e e087 d53e
00000020: 4617 3c3e d183 9ebf 4f90 2abf a3a5 95ba
00000030: ee2a 1abf 3bda 8abe 3b72 e8be aead 20be
00000040: 0ecd 34bf a941 1bbe 3001 52bf 0734 d13d
00000050: fa72 01c0 d5d3 abbc a620 6a3e b745 7dbe
00000060: 2a98 e6bd 0274 5bbf 1b6a 903e 8677 47c0
00000070: fe27 0f3c 867a c0be 8ed5 62bf 127c 713e
00000080: 0123 84bf 8883 f83e 7d59 05bf 1e74 993e
00000090: 4f38 c2bf cf24 c6be b659 90bf e380 9abf
000000a0: 923c 89be 58cd 4ac0 ee75 89bf d52a 45be
000000b0: 5552 093f 9cc0 6a3e be53 573f 2802 143f
000000c0: 68dc a9be 3714 40c0 9e53 27bf 9d6c 203f
000000d0: 54d8 0e3f 68e3 c1be d9f3 c4be 9e80 2fbf
000000e0: 77f1 cdbe 3efc 5dbe 92f1 543e c03c 79bf
000000f0: 75e4 1cc0 5cb9 a5be abba c1bd 52ef 8ebf
00000100: 4a3b 41be fe40 2f3e 6d56 a9bf 5cff 9bbf
00000110: 9f70 233e 2ed9 563d 858a c33d a090 e1bd
00000120: e556 1fbf 9d5c 643f b340 30c0 94f3 c7bf
00000130: 0f58 4dbf e8b2 a8be 0fc6 283f f43e c0bf
00000140: 11ed 42bf d4c6 0d3f 7532 39c0 8d41 a43d
00000150: b739 a93e ac7e e13d a9d8 12bf e3d7 bbbf
00000160: da1a 3fbf 91d0 cabf f4e2 293f 8a1e bcbf
00000170: e8d7 0ec0 3e70 12bd d2e5 9e3b 14e3 0f3c
00000180: 4fb1 7abe c104 13bf d4d9 17c0 8644 013d
00000190: faf7 483d 3969 99be 1ef9 0d3f 61ce d3bd
000001a0: 5baf 173e 2087 de3e 4c13 f8bf 7223 b5bc
000001b0: bbe3 debf 5924 8e3e 9f8b d8bf 5d19 3dbf
000001c0: 2476 0b3d 03bd 9bbf f72c 243f 2a92 18c0
000001d0: 1c4e cf3e 1068 8abd 3f1d 1dc0 bd02 0ec0
000001e0: 1b4f 8bbc 7455 25bf e0f6 fabe bf69 053f
000001f0: 8aa5 d2be 5e13 fabd e6f8 58c0 f5c8 69bf
00000200: f953 1ec0 1a73 4c3e b613 21c0 d3ab 1e3f
00000210: 2f33 d33e 5126 993e f821 a23d 07b8 1abf
00000220: 8665 04bf c07d 2bc0 308e f73d eda2 0b3f
00000230: 799c 403b 77b6 fd3d c4fb 45c0 7ea6 87be
00000240: cd44 66c0 9ada bcbe 1124 643e fa13 cdbf
00000250: 6475 84be b433 c7be ec11 323f 46e6 703f
00000260: 3f67 cebe d0f5 f8bf 7d4c 4f3e e0ad 47c0
00000270: b937 cc3e 5a7b cebd 2238 63be b434 373f
00000280: bb8a 17c0 2a52 25bf ebce bfbd 1e02 1e3f
00000290: 90db 4fbf 066d 4bbe 357d 1fbf 1381 663e
000002a0: 0b24 bc3d af07 37c0 cebb 123e 4531 56bf
000002b0: 5efb 1e3f 2203 61be 12a3 0fc0 aab8 87be
000002c0: 42a7 77bf 1f31 7cbf 7197 9cbf b505 543f
000002d0: 5268 0f3f bc17 73be d750 f5be 4fa9 fcbd
000002e0: 1856 5dc0 61f9 6a3e ab77 37bf 892b 403e
000002f0: 70a3 d9bf 0ae2 9e3e 8cdd cf3e fbd9 d43e
00000300: 0194 05bf 1a0d 8dbf a906 aa3e bde6 c7bc
00000310: beb5 d4bf edb7 193e 8ed8 06c0 c247 9c3e
00000320: 93c7 86bf 002d 08bf 90d9 26bf 1c34 5d3f
00000330: 8270 093f 78cd 383e 1e48 42c0 8ac7 1dc0
00000340: 684b 9f3e 0220 463c 19d7 a9be 674f 1bc0
00000350: 90a4 be3e fe0b 84be f722 22c0 78ac eebf
00000360: 5752 cebe e42c 10bf 207b d2be c98f d7bf
00000370: 5084 07c0 ec50 10be ff9c 363f 9d85 2c3f
00000380: aef5 41bd bebb b5be f3a6 cebf fa58 ed3e
00000390: 2939 203e 98da 233e f69d 0fbf 49fe 0ac0
000003a0: fb32 58bf 371a 0dbf 5880 83be e260 0cbf
000003b0: 2320 413f 0fba c3be 4f23 1a3c 03df 693e
000003c0: 41fb 74bf 5903 14bf 87a7 92bf 1def 15bf
000003d0: 66d2 bbbe c424 703d 3141 25bf 3868 babe
000003e0: f8d2 1d3f 8f4d a5bf 6506 7bbe bcfb 08c0
000003f0: 8a17 a63e c62e 13be 59c5 d5be 877e abbf
-1.3473692 0.39549112 -2.6450922 -0.022099005 -0.81443495 -0.020840999 0.41518492 0.41705227
0.18368253 -1.2383977 -0.6662645 -0.0011417161 -0.60221756 -0.27119622 -0.4539965 -0.15691254
-0.7062539 -0.15161766 -0.8203306 0.102150016 -2.0226426 -0.020975033 0.22864017 -0.24733625
-0.11259492 -0.8572389 0.28205952 -3.1166701 0.008737562 -0.37593478 -0.8860711 0.23582485
-1.0323182 0.4853785 -0.52089673 0.29971403 -1.5173434 -0.38699958 -1.1277378 -1.2070583
-0.26804024 -3.1687832 -1.0739114 -0.1925462 0.53641254 0.22925037 0.84112155 0.5781579
-0.3317597 -3.0012338 -0.65361965 0.6266573 0.5579884 -0.3786881 -0.3846729 -0.6855563
-0.40223286 -0.21678254 0.20795277 -0.9735832 -2.451444 -0.3236798 -0.09459432 -1.1166785
-0.18870273 0.17114636 -1.32295 -1.2187304 0.1596093 0.052453212 0.09547905 -0.11013913
-0.62241966 0.89203817 -2.753949 -1.5621209 -0.8021249 -0.32948995 0.65927213 -1.5019212
-0.76142985 0.5538151 -2.8937047 0.08020315 0.33051845 0.11010489 -0.5736185 -1.4675258
-0.7465035 -1.58449 0.6636193 -1.469682 -2.2319279 -0.035751574 0.004849174 0.008782167
-0.244817 -0.5742913 -2.3726702 0.03155949 0.049064614 -0.2996309 0.5545825 -0.10342098
0.14812987 0.43462467 -1.9380889 -0.022111628 -1.7413248 0.27762106 -1.6917609 -0.73866826
0.034048215 -1.2167057 0.6413111 -2.3839211 0.4048928 -0.067581296 -2.45491 -2.2189171
-0.017005494 -0.64583516 -0.49016476 0.5211448 -0.4114192 -0.12210725 -3.3901916 -0.9132226
-2.4738753 0.19965783 -2.516828 0.6198093 0.41249987 0.29912046 0.07916635 -0.60437053
-0.5171741 -2.6795502 0.12087667 0.5454548 0.002939014 0.12388318 -3.0934916 -0.2649421
-3.5979493 -0.3688553 0.22279383 -1.6021721 -0.25870812 -0.38906634 0.69558597 0.9410137
-0.40313146 -1.9450016 0.20244022 -3.1199875 0.39886263 -0.10082121 -0.22189382 0.71564794
-2.3678424 -0.645785 -0.09365638 0.6172198 -0.811944 -0.19865808 -0.62300426 0.22510175
0.09186562 -2.859844 0.14329454 -0.8366893 0.62102306 -0.21973851 -2.244328 -0.26508075
-0.9673959 -0.9851245 -1.2233716 0.8282121 0.56018555 -0.23739523 -0.47913238 -0.123369806
-3.4583797 0.22946693 -0.71666974 0.18766607 -1.7003002 0.3103183 0.40598714 0.41572556
-0.5217896 -1.1019623 0.33208206 -0.024402017 -1.6617963 0.15011568 -2.1069674 0.30523497
-1.0529655 -0.53193665 -0.65175724 0.8640764 0.536873 0.1804713 -3.0356517 -2.465304
0.31112218 0.012092592 -0.3317192 -2.4267213 0.37234926 -0.257904 -2.533384 -1.8646383
-0.40297195 -0.563185 -0.41109562 -1.6840755 -2.1174507 -0.14093369 0.7133331 0.6739138
-0.04735344 -0.35494798 -1.6144699 0.46356946 0.15646805 0.16001356 -0.56100404 -2.1717703
-0.8445279 -0.55118126 -0.25683856 -0.5483533 0.7543966 -0.3822789 0.009407832 0.22838978
-0.95695883 -0.5781761 -1.1457375 -0.5856798 -0.3668396 0.058628812 -0.645526 -0.36407638
0.6165004 -1.2914294 -0.24514158 -2.1403646 0.32439834 -0.14373311 -0.41752127 -1.3397988

l3.bias f4 [44]
00000000: 85cc 83be 93bb 07be 3aca 19be 4e10 c0bd
00000010: 6478 813e 8495 b8be addf 53bd e2c5 123e
00000020: fc91 2cbf 3a5e 37be c559 1dbe 19be e43d
00000030: ce35 073e 3377 efbd aba9 a73d 93b4 c13e
00000040: 2673 0dbe b250 f1be 0151 cd3e bb4e 563e
00000050: 8772 f3bd aae5 453b bc3c 0a3f 218b b13e
00000060: 3209 a93e bdbe fcbd 0a74 983e 12dc 083e
00000070: 0ac6 4ebe 8bac 6d3e 4dd3 efbd f368 c7bd
00000080: e83f 9d3e 4e37 003e 24ec 303d d027 6abd
00000090: 5deb d9bc e60e f3be 8f16 873e 0dd8 0cbf
000000a0: fdcd 023e 46fa f9bd e100 83be 2ebd 0dbf
-0.25741974 -0.13255148 -0.1501855 -0.0937811 0.25287163 -0.3605157 -0.051726986 0.14333299
-0.67410254 -0.17907038 -0.15366276 0.11169071 0.13204119 -0.11692657 0.081866585 0.3783308
-0.13813457 -0.47131878 0.40100864 0.20928471 -0.11887079 0.0030196705 0.53998923 0.3467646
0.33014828 -0.12341068 0.2977603 0.133652 -0.20192733 0.23210351 -0.11710224 -0.09736814
0.3071282 0.12521097 0.04319395 -0.057166874 -0.026601488 -0.47472304 0.26384398 -0.5501717
0.12773891 -0.12205939 -0.25586608 -0.5536679
